…
      "execution_count": 1,
      "metadata": {
        "colab": {
          "base_uri": "https://localhost:8080/"
        },
        "id": "FMu2-ELn9eLR",
        "outputId": "195e0839-266d-4c33-f703-15787b18daf8"
      },
      "outputs": [
        {
          "output_type": "stream",
          "name": "stdout",
          "text": [
            "----------------------------------------------------------------\n",
            "        Layer (type)               Output Shape         Param #\n",
            "================================================================\n",
            "            Conv2d-1           [-1, 16, 66, 46]             160\n",
            "              ReLU-2           [-1, 16, 66, 46]               0\n",
            "         MaxPool2d-3           [-1, 16, 33, 23]               0\n",
            "            Conv2d-4           [-1, 32, 35, 25]           4,640\n",
            "              ReLU-5           [-1, 32, 35, 25]               0\n",
            "         MaxPool2d-6           [-1, 32, 17, 12]               0\n",
            "            Conv2d-7           [-1, 64, 19, 14]          18,496\n",
            "              ReLU-8           [-1, 64, 19, 14]               0\n",
            "         MaxPool2d-9             [-1, 64, 9, 7]               0\n",
            "           Conv2d-10           [-1, 128, 11, 9]          73,856\n",
            "             ReLU-11           [-1, 128, 11, 9]               0\n",
            "        MaxPool2d-12            [-1, 128, 5, 4]               0\n",
            "          Flatten-13                 [-1, 2560]               0\n",
            "           Linear-14                   [-1, 10]          25,610\n",
            "          Softmax-15                   [-1, 10]               0\n",
            "================================================================\n",
            "Total params: 122,762\n",
            "Trainable params: 122,762\n",
            "Non-trainable params: 0\n",
            "----------------------------------------------------------------\n",
            "Input size (MB): 0.01\n",
            "Forward/backward pass size (MB): 1.83\n",
            "Params size (MB): 0.47\n",
…
